preclassification/CNN_8_x4_notbalanced.model (torch_old, 289637 bytes, 6 tensors)

weight f4 [8, 3, 5, 5]
00000000: 5910 91b9 e0b2 2a39 fe92 b3b8 750a 99b9
00000010: 267f b638 9275 38b9 a490 d638 7f8d 8db7
00000020: 3fd3 8cb7 240c dfb9 9445 96b8 5a1b 81b9
00000030: 7549 7eb8 70de 94b9 7f5f 1e39 5217 0239
00000040: 6efa 9938 bbf0 8039 39af b5b9 ddde 88b8
00000050: 0984 1e39 6e95 bf39 a25a 4f39 7743 0d3a
00000060: 733e 0ab9 c817 08bb 01a8 04bb 0127 dcba
00000070: d1fa c1ba a784 edba f53e 04bb ed60 e0ba
00000080: 321a fdba d24c 03bb 60c4 daba caf1 02bb
00000090: 2a4d 04bb ae31 d1ba f046 09bb 6410 dcba
000000a0: 2feb a6ba ec2c faba c874 00bb 45fb c8ba
000000b0: e0ba 01bb 49e0 a7ba eb40 80ba c57a daba
000000c0: 50b8 a7ba 1c85 c9ba da79 3bbb 8ab2 41bb
000000d0: a322 17bb 554c 11bb 7401 1cbb 8442 17bb
000000e0: a8c0 34bb 2146 43bb 6498 1cbb b481 29bb
000000f0: bd4e 0ebb efe9 25bb 1eb7 31bb add9 2bbb
00000100: 9cb8 1dbb af78 f0ba 0161 0ebb ccd9 0bbb
00000110: 852c 21bb b118 22bb aeb1 c6ba 9a76 f4ba
00000120: 9a2e 14bb c0c8 d3ba ce22 daba 9288 1cbb
00000130: c381 0dbb ce77 feba 4876 25bb 7de3 0cbb
00000140: 28bf 1cbb ed3a 06bb 261b 09bb 9025 2abb
00000150: 94ad 0bbb 4da5 0abb 61d7 0bbb 4f35 2cbb
00000160: 1c4a 2dbb 1018 23bb b7e4 1fbb a0dc 0bbb
00000170: ee3c 09bb 7a80 0bbb 2f0d 27bb 3cb2 1abb
00000180: ee1b 2fbb 3ef4 32bb 8721 35bb daf1 1cbb
00000190: 915c edba 5212 04bb 7d0d 18bb 2a76 09bb
000001a0: 90c8 0abb 5899 11bb e63b ecba 4a76 1bbb
000001b0: 4038 04bb 54fe 24bb 7acb 0abb d07f 19bb
000001c0: 2019 07bb 087a 1bbb 46a5 02bb 1e7f 0ebb
000001d0: 1e63 11bb 44f2 09bb 8cc1 07bb 2b22 01bb
000001e0: 69c8 10bb d3b8 21bb 0843 12bb 78cc 17bb
000001f0: a3c6 22bb b364 4ebb 0889 6bbb 96e7 62bb
00000200: 9ab7 6cbb 54e3 75bb 784d 4ebb 1447 6ebb
00000210: 5acf 67bb 10e0 5dbb 2a76 5ebb 033e 67bb
00000220: 45c2 62bb d9c9 67bb 8173 5dbb e98a 79bb
00000230: 337d 72bb 6756 6bbb 6e44 7ebb c5be 74bb
00000240: f6ae 73bb 1039 6fbb 4d2d 75bb 8782 85bb
00000250: c832 75bb a135 7dbb c890 59bd 141a 59bd
00000260: 669f 56bd 4e52 53bd 7b5d 58bd 0aec 56bd
00000270: 540b 52bd 4cbd 52bd 4bf8 4fbd de95 54bd
00000280: 9ff2 56bd 1755 4fbd 5bfe 50bd c82c 50bd
00000290: 0e7a 50bd e9af 56bd a872 54bd 6cbb 55bd
000002a0: bdf7 54bd 58da 50bd 5d69 56bd b642 56bd
000002b0: 278a 57bd 360e 59bd c00f 59bd f5c3 61bd
000002c0: 148a 61bd 647d 5fbd a674 5bbd 2839 60bd
000002d0: b49c 5fbd b2c9 5cbd aea3 5dbd f31a 5bbd
000002e0: 6538 5dbd af6e 63bd 2a71 5bbd b12c 5dbd
000002f0: ee99 5cbd 244d 5cbd 39cc 64bd bbf1 60bd
00000300: 4e2e 60bd f313 60bd d789 5fbd 408e 65bd
00000310: c766 64bd 8d9a 65bd a4cd 65bd e0a1 66bd
00000320: bf39 9b3d 5800 c33d afc4 c33d e807 db3d
00000330: 1913 d33d 8669 9e3d 7503 c83d 0b42 c73d
00000340: 0df8 dd3d f2c0 d53d 3d3a 9b3d eb42 c63d
00000350: 5075 c53d 3da6 da3d 6634 d53d f2de 9d3d
00000360: e51a c63d 9f92 c63d 7529 dc3d ecf1 d73d
00000370: a99b 973d 662d c03d 899b be3d d64d d33d
00000380: 7575 ce3d a6fc e0be ac19 86be 1b7f 83be
00000390: 2624 b6ba 0e8c bb3e 7a99 20bf 2f57 2abe
000003a0: b820 ed3e 680d a03f 0ecf 2b3f 0a24 0abf
000003b0: f31b ad3e 61c9 533f 2135 dd3f 8c3c 763f
000003c0: d14e aebf b10e f1be a5ac 0840 2e88 463f
000003d0: 912a 253f 3dde dfbf 463b 68bf 5983 ffbd
000003e0: eed6 6c3f e246 8d3e dcb0 883e af71 133e
000003f0: 78c5 f9bd 9c45 ebbc 1a52 b73e b629 39bd
-0.00027668735 0.000162791 -8.5627646e-05 -0.00029190225 8.7021195e-05 -0.00017591406 0.000102312566 -1.6874399e-05
-1.678767e-05 -0.0004254292 -7.165517e-05 -0.00024625176 -6.062673e-05 -0.0002839449 0.00015103629 0.00012406454
7.342255e-05 0.0002459342 -0.0003465356 -6.526497e-05 0.00015117241 0.00036541693 0.00019774822 0.0005388776
-0.0001318397 -0.0020766128 -0.002024174 -0.0016796292 -0.001479948 -0.0018121199 -0.0020179127 -0.001711873
-0.0019310175 -0.0020034802 -0.0016690604 -0.0019980543 -0.0020187595 -0.001596024 -0.0020946823 -0.0016789553
-0.0012734885 -0.0019086874 -0.0019600857 -0.0015333673 -0.0019795224 -0.0012807931 -0.0009784972 -0.0016668668
-0.0012796018 -0.0015374753 -0.0028606565 -0.002955588 -0.0023061417 -0.0022170742 -0.0023804577 -0.0023080418
-0.0027580652 -0.0029796439 -0.0023894543 -0.0025864663 -0.0021714412 -0.0025316437 -0.0027117203 -0.0026222274
-0.0024066335 -0.0018346513 -0.00217253 -0.0021339534 -0.0024593186 -0.0024733956 -0.0015159154 -0.0018651069
-0.0022610785 -0.0016157851 -0.0016642453 -0.0023885113 -0.0021592237 -0.0019414367 -0.0025247503 -0.0021497898
-0.002391765 -0.00204819 -0.0020920723 -0.002596233 -0.0021313177 -0.0021155656 -0.0021338093 -0.0026276892
-0.0026441878 -0.0024886169 -0.00243978 -0.002134122 -0.0020940858 -0.0021286295 -0.0025490036 -0.002360477
-0.0026719528 -0.0027306224 -0.0027638392 -0.0023947866 -0.0018109252 -0.0020152521 -0.00232014 -0.0020974972
-0.0021176673 -0.0022216644 -0.0018023222 -0.0023721629 -0.002017513 -0.0025176005 -0.002117841 -0.002342213
-0.002061434 -0.002372386 -0.0019934936 -0.0021743248 -0.0022184323 -0.0021048943 -0.0020714728 -0.0019704204
-0.002209211 -0.0024676814 -0.0022317786 -0.0023162644 -0.0024837635 -0.0031493127 -0.0035939831 -0.00346229
-0.0036120177 -0.0037519531 -0.003147928 -0.0036358284 -0.0035371394 -0.0033855475 -0.0033944943 -0.0035284765
-0.0034600657 -0.0035368113 -0.003379077 -0.0038077182 -0.0037000894 -0.0035909654 -0.0038798111 -0.0037345153
-0.0037183142 -0.0036502518 -0.0037411035 -0.004074398 -0.0037414301 -0.0038636702 -0.05311659 -0.053003386
-0.052398108 -0.051592164 -0.052823525 -0.0524712 -0.051280335 -0.05145006 -0.0507739 -0.051900737
-0.052477475 -0.050618257 -0.051023822 -0.050823957 -0.05089765 -0.052413855 -0.051867157 -0.052180693
-0.051994074 -0.05098948 -0.052346576 -0.052309714 -0.052621987 -0.05299207 -0.052993536 -0.05511852
-0.055063322 -0.05456294 -0.05357804 -0.05474201 -0.054592803 -0.05390329 -0.054111175 -0.053492498
-0.05400886 -0.055525478 -0.05357472 -0.0539977 -0.053857736 -0.053784505 -0.055858824 -0.054918032
-0.05473166 -0.054706525 -0.054574814 -0.056043863 -0.05576208 -0.056055594 -0.056104317 -0.05630672
0.075793736 0.0952155 0.09558999 0.10694867 0.10306377 0.07734971 0.097662844 0.097293936
0.108383276 0.10437192 0.075794674 0.09680732 0.09641516 0.10676239 0.10410385 0.07708539
0.096730985 0.096959345 0.10750095 0.1054419 0.07402737 0.09383659 0.0930701 0.103175804
0.10080997 -0.43942755 -0.2619146 -0.2568291 -0.0013896271 0.3663029 -0.62734187 -0.1663482
0.46314025 1.2504091 0.67112815 -0.5396124 0.33810386 0.82729155 1.7281839 0.9618614
-1.3617803 -0.4708152 2.1355374 0.77551544 0.64518076 -1.7489697 -0.90715444 -0.124762245
0.92515457 0.27593142 0.26697433 0.14398836 -0.12195867 -0.028719716 0.35804826 -0.045205794

bias f4 [8]
00000000: c25f fd3b 0866 03bb 5ad5 8cbe 0a73 7d3f
00000010: 7aa4 d0be 34cd 223f c276 ea3e 8a8f 11bf
0.0077323625 -0.002004983 -0.27506524 0.9900366 -0.40750486 0.63594365 0.4579373 -0.5685965

weight f4 [16, 8, 5, 5]
00000000: 885e f9b8 6aa8 2537 1a62 5938 011c 5eb9
00000010: a94b 5c38 3f22 efb8 5c63 d538 b383 a637
00000020: f9b6 2838 3940 25b8 27a3 35b8 7a68 3d39
00000030: a828 1bb9 8f3a 0bb9 206d e438 071e 3a38
00000040: cd1d 2438 2071 2739 0aa5 42b9 d7b8 47b9
00000050: 1d8a 8b38 1ab3 c436 593f aab8 bf7b 08b9
00000060: 9cc3 1ab9 8bd3 773a 42d7 7f3a 8a36 813a
00000070: 719c 1f3a 3e80 6f3a d553 203a e0bd 4e3a
00000080: 7b5b 523a 0869 5d3a 900f 3e3a d96b 773a
00000090: 6374 763a cc76 683a 6ff4 513a e0e6 793a
000000a0: 2cc6 713a 8634 813a 451c 513a 9c51 793a
000000b0: cf5e 213a e5cc 4a3a 464f 6d3a 4a6d 333a
000000c0: 7c5c 733a 58bc 263a e8e9 2eb9 99cc a9b8
000000d0: bda2 3fb9 862e 4b39 2bb2 18b9 5978 3fb8
000000e0: 8b30 84b8 c961 5339 7a75 5638 8b4f ab38
000000f0: fbf7 82b8 6b07 bbb6 ac30 f938 fe10 9eb7
00000100: 3fde 95b7 c5f2 02b9 5069 f438 b0f8 03b9
00000110: 02e8 0bb7 6b44 1939 50f0 01b9 1778 dcb8
00000120: 799f 3539 834c dcb8 2f24 1fb9 28a9 0dba
00000130: 30b4 04ba 35b0 c5b9 5b51 cdb9 2038 c4b9
00000140: a14f 82b9 4c55 0fba 9499 c6b9 1e98 03ba
00000150: bafc d3b9 31b3 06ba 2a37 e7b9 a9fd eeb9
00000160: c218 93b9 7fb4 f1b9 221b b1b9 9dc0 62b9
00000170: 788f d3b9 a6d1 01ba a401 1eba 5a23 c2b9
00000180: cc53 b6b9 efea c8b9 dfce f5b9 3fa5 e6b9
00000190: 1d9e c437 5157 ee38 127d b9b7 7fdb 1e39
000001a0: 6008 1d39 eeb6 11b9 4d12 45b9 a783 12b9
000001b0: 7ce3 0eb9 11e1 42b9 c806 9bb8 2d8e 54b9
000001c0: 8285 91b6 a098 80b8 7d44 3039 900e 39b8
000001d0: 4f56 2db9 16dd 1eb8 b196 25b9 6396 b035
000001e0: 20c6 2db9 6700 00b8 63f0 fc38 6e75 2a39
000001f0: 21a3 70b8 1669 82ba 20b6 7bba c7bf 2fba
00000200: e061 23ba 1916 83ba 30d5 6dba 1ee2 86ba
00000210: a1f4 88ba c057 36ba f99f 4cba 9a64 6eba
00000220: ad79 2cba d927 79ba 5f58 77ba 0f8a 2dba
00000230: dc6f 79ba e5f0 83ba d3ee 8bba 4989 57ba
00000240: c2ef 47ba cff0 8cba ed78 86ba 2e90 69ba
00000250: 447e 29ba 91ae 6cba c379 d9b8 ecba f2b8
00000260: 4834 07b8 60c2 e3b8 7d05 36b9 2c1c 8fb8
00000270: fbde beb8 cac0 91b7 b29d 48b8 441a 56b8
00000280: 6a17 eab8 9317 d7b8 315d 29b8 4ea0 2eb9
00000290: 7c07 d537 86c0 7238 bcc7 1f39 cdbd 90b8
000002a0: c9fb 8d38 f4d7 3f38 f497 f237 460d 31b9
000002b0: 65e5 c738 f4c0 c838 e8b4 10b9 5be3 88b9
000002c0: 18fb b2b8 e646 07b9 d4c4 92b9 3586 32b9
000002d0: bba8 6db9 7de9 1cb9 49a0 1cb9 dcb3 abb9
000002e0: f681 b1b9 425a 94b9 a93e b6b9 c088 8fb9
000002f0: 0178 40b9 335c 82b9 cabe fdb8 6c17 cab9
00000300: 875e 90b9 17d5 9bb9 ee9d 3cb9 86d2 25b9
00000310: 4063 82b9 e787 beb9 5db2 06b9 12c9 adb9
00000320: 6c74 1bba 1a03 34ba af5e 1bba bc19 3fba
00000330: 6c9e 0dba 196a 39ba e1fa 4cba 335d 46ba
00000340: 70de 5dba 1833 30ba 8386 57ba 5e1e 6cba
00000350: 952f 35ba 264d 6dba 3a56 50ba 69c4 01ba
00000360: 3eb8 4eba 17ed 6fba 5b10 21ba 1bec 20ba
00000370: fb18 44ba ea3e 13ba 293c 3cba 86c7 51ba
00000380: cfb8 34ba d0c0 aeb8 f0bf 7139 b17c 2f3a
00000390: 7556 3f3a f36d 1c3a f92d 12b9 c858 8338
000003a0: ce68 ce39 b396 373a 3565 593a f634 3839
000003b0: 2798 a939 0b4f cd39 d778 263a 9525 793a
000003c0: f98b d239 8818 ef39 3925 8a39 b7fa 053a
000003d0: f22c 623a a12e 053a 635e 143a 9cbe ec39
000003e0: 2099 c339 c470 6b3a 1f42 0abd 4110 06bd
000003f0: 172e 04bd f501 07bd c28c 0bbd 0d33 05bd
-0.00011890853 9.873978e-06 5.1828196e-05 -0.00021182002 5.252255e-05 -0.00011402787 0.000101751386 1.985007e-05
4.0224728e-05 -3.9398878e-05 -4.330571e-05 0.00018063365 -0.00014797098 -0.00013277888 0.00010892213 4.437382e-05
3.91284e-05 0.00015968503 -0.00018562764 -0.00019046977 6.653762e-05 5.8621054e-06 -8.118031e-05 -0.0001301607
-0.00014759455 0.00094538246 0.0009759554 0.0009858173 0.000608868 0.0009136236 0.00061160076 0.000788657
0.0008024496 0.0008446132 0.0007250244 0.0009438373 0.0009401498 0.00088678 0.0008009141 0.0009532999
0.00092229503 0.0009857572 0.000797693 0.0009510757 0.000615579 0.000773622 0.0009052645 0.00068445934
0.00092834956 0.0006360463 -0.0001668107 -8.096657e-05 -0.00018275804 0.0001937692 -0.00014562222 -4.565003e-05
-6.303292e-05 0.00020158956 5.1130985e-05 8.1687314e-05 -6.245073e-05 -5.573898e-06 0.00011882311 -1.884298e-05
-1.7865676e-05 -0.00012488205 0.00011654443 -0.00012585777 -8.339064e-06 0.00014616705 -0.00012391922 -0.00010512786
0.00017320913 -0.00010504669 -0.00015176901 -0.00054039294 -0.00050622504 -0.00037706053 -0.00039161262 -0.0003742585
-0.0002485486 -0.00054677273 -0.00037879928 -0.00050199206 -0.00040433352 -0.0005138396 -0.00044100854 -0.0004558389
-0.0002805647 -0.00046101582 -0.00033780286 -0.00021624794 -0.0004035195 -0.00049521995 -0.0006027466 -0.00037028902
-0.0003477618 -0.00038322012 -0.00046884172 -0.00043992136 2.3438648e-05 0.00011364988 -2.2111959e-05 0.00015149823
0.00014975807 -0.00013896424 -0.00018794202 -0.0001397269 -0.0001362692 -0.00018585126 -7.392239e-05 -0.0002027086
-4.336879e-06 -6.131944e-05 0.00016810182 -4.4121e-05 -0.00016530718 -3.7876038e-05 -0.00015791763 1.315679e-06
-0.00016572373 -3.0517953e-05 0.00012061072 0.0001625621 -5.7372385e-05 -0.0009949531 -0.0009602029 -0.0006704297
-0.0006232541 -0.0010001092 -0.00090726 -0.0010290777 -0.0010448882 -0.0006955825 -0.000780582 -0.00090939703
-0.00065794104 -0.0009504534 -0.00094354706 -0.00066199986 -0.00095152645 -0.0010066299 -0.0010676034 -0.0008222056
-0.0007626974 -0.0010752919 -0.0010259427 -0.0008909729 -0.00064656534 -0.0009028698 -0.00010370046 -0.00011574276
-3.22352e-05 -0.00010860409 -0.00017358917 -6.824019e-05 -9.101439e-05 -1.7375121e-05 -4.783058e-05 -5.1046038e-05
-0.00011162351 -0.0001025639 -4.037953e-05 -0.00016653651 2.5395064e-05 5.7876598e-05 0.00015237828 -6.901808e-05
6.7703026e-05 4.573907e-05 2.8919407e-05 -0.0001688498 9.5317875e-05 9.5726835e-05 -0.00013800303 -0.00026109334
-8.534471e-05 -0.00012901015 -0.00027993938 -0.00017025399 -0.00022664938 -0.000149643 -0.0001493703 -0.00032749667
-0.000338569 -0.00028296007 -0.0003476043 -0.00027376972 -0.00018355252 -0.00024864226 -0.00012099517 -0.00038545893
-0.0002753625 -0.00029722668 -0.0001798791 -0.00015814052 -0.0002486948 -0.0003634088 -0.00012845681 -0.0003314694
-0.0005930129 -0.0006866917 -0.000592689 -0.00072899065 -0.000540233 -0.0007073 -0.00078193663 -0.00075669884
-0.0008463627 -0.0006721481 -0.0008221643 -0.00090072106 -0.00069116923 -0.00090523285 -0.0007947419 -0.0004950227
-0.00078857306 -0.00091524556 -0.00061441 -0.0006138698 -0.0007480529 -0.000561698 -0.00071805954 -0.00080024486
-0.00068939937 -8.332881e-05 0.00023055053 0.00066943007 0.0007298955 0.00059673114 -0.00013940771 6.2631036e-05
0.00039369467 0.0007003352 0.0008292974 0.00017567337 0.00032347554 0.0003915954 0.0006350404 0.00095041964
0.0004015861 0.0004560391 0.00026349144 0.0005110907 0.0008627913 0.00050804956 0.00056598167 0.00045155443
0.00037307385 0.0008981342 -0.033754464 -0.032730345 -0.032270517 -0.03296085 -0.034069784 -0.03251939

bias f4 [16]
00000000: 2d9a 16ba 4d16 4a3e 9025 16bf 13ff a8bb
00000010: c83e 0ebf f61b 5bbb e57b 6fbe 0afd adbe
00000020: db5f ccb9 c94f aebe 5e68 b3bf 2352 f9ba
00000030: 13b6 85bf da84 71bf 9533 acbe 32b1 bdba
-0.000574502 0.1973507 -0.58651066 -0.0051573603 -0.55564547 -0.0033433414 -0.23387106 -0.33982116
-0.0003898133 -0.34045246 -1.4016225 -0.0019021671 -1.044619 -0.9434334 -0.33633104 -0.0014472364

weight f4 [2, 32400]
00000000: d881 10b8 3f0a dfb7 d098 63b7 4b52 a2b7
00000010: 7787 ca36 63e6 bf37 5cee 9f37 2a1b 7ab6
00000020: c1df 0937 f193 e435 680f 1337 8316 1d37
00000030: 3b18 2938 e60d 5b38 4cca 7238 93a7 4938
00000040: 3e32 4d38 d849 44b7 217e 0eb7 6ca2 23b8
00000050: 4c91 f3b7 7ee9 fbb7 1465 11b8 ec40 1ab8
00000060: 0f7d 43b8 7d08 97b7 55dc 8cb7 931b aeb7
00000070: 50ab 0cb7 81e3 0138 493e 1238 8b2b 9637
00000080: 4b94 0138 46f8 cfb4 70a0 f537 7ac4 2b38
00000090: 03bd 4138 52e7 5038 f669 2838 7048 0137
000000a0: b15b 0138 09bd 8036 7f5e 8d36 43b6 6fb7
000000b0: 47c9 9eb7 9da5 dbb7 3f70 84b8 3325 4eb8
000000c0: 8f41 76b7 55f4 ba37 7999 0c38 6f0e 4737
000000d0: d475 1bb7 9086 8836 9ec5 9737 d0f6 b337
000000e0: 53a7 5837 6bc0 6b38 d3b2 8b38 fe27 8b38
000000f0: a262 9f38 a635 4438 1091 3c36 7c21 5ab7
00000100: 0d2d 1eb8 0468 05b8 f3da 38b8 d291 e2b7
00000110: 5572 7bb7 09c9 56b7 98c6 f5b7 85dc e4b7
00000120: 92f5 01b8 a170 afb7 1721 d137 37b4 9a37
00000130: 8bd2 6937 e8e8 7e36 d397 1338 b0b2 1938
00000140: 05f9 4738 05b3 6538 f4b5 9b38 131c 8038
00000150: a002 9d37 b53e 4236 064c 7bb6 295f 8f35
00000160: 3f3d 2b37 4b0f c736 7a19 f2b7 ce2e 85b8
00000170: ebee 9fb8 a6fa ffb7 cecc fb34 e2e8 3936
00000180: 1cc5 a4b7 3b74 1bb8 0f05 d2b7 2242 23b6
00000190: 7889 2db4 d01f 1a37 3a09 4f38 6bac 2538
000001a0: 8031 5138 9291 a338 dd14 fb37 97cf 4037
000001b0: d62d 5d36 af61 fbb7 ad62 abb7 e5b1 0d37
000001c0: 42df 9ab6 332f 5d37 9aa7 10b6 3d85 60b7
000001d0: ea0c 92b7 86fc ffb7 b107 b0b5 7831 0b38
000001e0: 312f 8d37 b3ef 0a38 f1da be37 c104 f537
000001f0: 66ef b937 97d9 4538 8300 6538 c221 9b38
00000200: f92f 6c38 efef 4736 25b7 0037 52a4 9eb7
00000210: 2d4a 41b7 53d5 a535 a4dd cbb5 7397 cfb7
00000220: 5d10 16b8 418a b4b7 11c5 9fb7 d6a7 2837
00000230: 44e5 0db4 1b69 c4b7 24ab 3cb8 2ecc 80b7
00000240: 1353 94b6 5b0b 94b6 9a31 9337 89e7 4438
00000250: dce5 9538 cb3f 7838 beb5 7c38 5959 8038
00000260: 856f 2637 7ef1 6bb7 fd0e 8637 a9f5 7637
00000270: 44d5 ff37 caed 0338 daa2 9936 dec2 7837
00000280: e013 8f37 716d 54b6 a759 81b7 b0e5 c837
00000290: bf83 2c38 f3a5 6b38 7715 1238 5571 0138
000002a0: 294a e035 4391 5e37 a076 3c38 9ace 6338
000002b0: 0d26 5d38 d09c 1b38 a6c1 ed37 ea10 82b6
000002c0: 9caf 2d35 0b00 9336 9cfe d537 7f3d 6436
000002d0: 3ac5 b4b7 1c68 beb7 6273 cdb7 062c 0db7
000002e0: d51b 47b6 a791 9fb7 b4e1 09b8 7a13 3cb8
000002f0: d7a0 a5b7 f677 27b6 0f93 0538 b71e 3238
00000300: bb1e 3c38 caf5 0d38 b414 5838 87bd 3a38
00000310: 4368 6638 3538 c237 6860 2e35 dbd5 3a37
00000320: b5c2 0637 c7a9 8437 e072 d637 545f 0038
00000330: 450f 0a38 ced7 8036 3137 52b6 086d 9237
00000340: 5b69 4337 6414 ca37 272f 6538 4388 0538
00000350: 3172 1d38 0b3b 9b37 cb0f 7436 5157 0638
00000360: c7a0 1438 62ef 5838 353c a037 4df2 fc37
00000370: aa92 0438 cbed fa37 1fb6 9837 abd5 f137
00000380: 9b4b 7b37 d6f3 5cb7 3457 92b7 e055 bcb7
00000390: 4459 61b7 f83d 6137 bc86 c535 e1bc 16b8
000003a0: 818d e4b7 bd06 9937 838b 5b37 f208 9537
000003b0: 0835 2b37 82f5 c936 a4b3 5337 0470 af37
000003c0: f757 e036 c688 c537 d1bb 1037 8ea3 1636
000003d0: b1f0 f5b6 cff9 b636 dd9c 6936 23a3 1038
000003e0: 4108 2438 eb0d 6438 0c7c 0638 7e09 3cb7
000003f0: 66a4 2137 93e8 1537 e703 ec36 cce1 bb37
-3.44532e-05 -2.6588443e-05 -1.3565834e-05 -1.9350226e-05 6.0358393e-06 2.2876256e-05 1.9065272e-05 -3.7268715e-06
8.217933e-06 1.703038e-06 8.76547e-06 9.363171e-06 4.0315306e-05 5.2226613e-05 5.78857e-05 4.80782e-05
4.89226e-05 -1.16997035e-05 -8.493226e-06 -3.9013496e-05 -2.9035516e-05 -3.003026e-05 -3.466483e-05 -3.6776924e-05
-4.6608093e-05 -1.8004555e-05 -1.67919e-05 -2.0755257e-05 -8.384537e-06 3.0967876e-05 3.486712e-05 1.790167e-05
3.0894105e-05 -3.8737397e-07 2.9280985e-05 4.095256e-05 4.6190817e-05 4.98065e-05 4.0153005e-05 7.705865e-06
3.084139e-05 3.836704e-06 4.2131282e-06 -1.4287946e-05 -1.8928795e-05 -2.6183954e-05 -6.315158e-05 -4.914887e-05
-1.4678007e-05 2.2286704e-05 3.3521534e-05 1.1864685e-05 -9.266154e-06 4.068781e-06 1.8092625e-05 2.1453394e-05
1.29135615e-05 5.620757e-05 6.661345e-05 6.6354856e-05 7.6000826e-05 4.6780006e-05 2.809862e-06 -1.3001609e-05
-3.7712092e-05 -3.1806543e-05 -4.407293e-05 -2.7009202e-05 -1.4987386e-05 -1.2802201e-05 -2.9298753e-05 -2.7282405e-05
-3.0984702e-05 -2.0914073e-05 2.493015e-05 1.844215e-05 1.3936903e-05 3.7984519e-06 3.518893e-05 3.664446e-05
4.7677215e-05 5.476458e-05 7.424867e-05 6.108745e-05 1.871708e-05 2.8944753e-06 -3.7446166e-06 1.0682026e-06
1.0206654e-05 5.9324425e-06 -2.8860512e-05 -6.350652e-05 -7.626213e-05 -3.0515086e-05 4.6901408e-07 2.7702704e-06
-1.964211e-05 -3.7063128e-05 -2.5036306e-05 -2.4327387e-06 -1.6161891e-07 9.186522e-06 4.936124e-05 3.9499642e-05
4.9875583e-05 7.79956e-05 2.9931247e-05 1.1492425e-05 3.2958246e-06 -2.996702e-05 -2.0430738e-05 8.445674e-06
-4.6155483e-06 1.3183616e-05 -2.155523e-06 -1.3382462e-05 -1.741057e-05 -3.051596e-05 -1.311526e-06 3.3186254e-05
1.6830485e-05 3.3125e-05 2.2751718e-05 2.920849e-05 2.2165197e-05 4.7171106e-05 5.459833e-05 7.397264e-05
5.6311463e-05 2.979297e-06 7.672036e-06 -1.8911585e-05 -1.1520967e-05 1.2355544e-06 -1.5189185e-06 -2.4746847e-05
-3.5778026e-05 -2.1522052e-05 -1.9046043e-05 1.0052658e-05 -1.3215055e-07 -2.3413964e-05 -4.498208e-05 -1.5353868e-05
-4.420415e-06 -4.4120657e-06 1.7546863e-05 4.6945675e-05 7.147688e-05 5.918722e-05 6.0250743e-05 6.120158e-05
9.920336e-06 -1.4063318e-05 1.5981024e-05 1.471994e-05 3.0497678e-05 3.1454292e-05 4.5787137e-06 1.4827323e-05
1.7056183e-05 -3.1654165e-06 -1.5419746e-05 2.3948814e-05 4.1130694e-05 5.618292e-05 3.4829103e-05 3.0861545e-05
1.6710884e-06 1.32660525e-05 4.493317e-05 5.431343e-05 5.2725944e-05 3.7100923e-05 2.8342776e-05 -3.876271e-06
6.470307e-07 4.3809464e-06 2.551014e-05 3.4010443e-06 -2.1549513e-05 -2.2698245e-05 -2.4491634e-05 -8.414505e-06
-2.9669511e-06 -1.9022102e-05 -3.2873548e-05 -4.4840832e-05 -1.974443e-05 -2.4954766e-06 3.184663e-05 4.2467113e-05
4.4851313e-05 3.384593e-05 5.1517694e-05 4.4522367e-05 5.4933374e-05 2.3152776e-05 6.496034e-07 1.1136256e-05
8.032356e-06 1.5814685e-05 2.556428e-05 3.060636e-05 3.2915985e-05 3.8398202e-06 -3.1324564e-06 1.7455328e-05
1.1647436e-05 2.4089772e-05 5.464177e-05 3.1836575e-05 3.7538066e-05 1.8504934e-05 3.6368026e-06 3.202941e-05
3.5435685e-05 5.1721356e-05 1.9101522e-05 3.0153571e-05 3.1607844e-05 2.9913053e-05 1.8204619e-05 2.8828936e-05
1.4978369e-05 -1.3169794e-05 -1.7445163e-05 -2.2451335e-05 -1.3431829e-05 1.3425473e-05 1.4716857e-06 -3.5938694e-05
-2.724561e-05 1.8242159e-05 1.30859e-05 1.776635e-05 1.0204742e-05 6.0188477e-06 1.2618406e-05 2.0913787e-05
6.6859607e-06 2.354792e-05 8.626798e-06 2.2446943e-06 -7.329589e-06 5.453104e-06 3.4811012e-06 3.448421e-05
3.9108334e-05 5.4372398e-05 3.2063617e-05 -1.1207883e-05 9.634625e-06 8.9352425e-06 7.0338024e-06 2.2397282e-05

bias f4 [2]
00000000: 43e7 7d3f bde6 7dbf
0.99181 -0.99180204
