preclassification/CNN_8_x4_bal.model (torch_old, 289637 bytes, 6 tensors)

weight f4 [8, 3, 5, 5]
000000 f1 9c 83 be 2b 69 1f bf 08 9f 00 bf 69 f4 52 bf
       -0.25705674 -0.6226985 -0.5024266 -0.8240419
000010 91 8f 0b bf 03 5b b8 be 66 9e fc 3e 12 30 dc bc
       -0.5451594 -0.36006936 0.49339598 -0.02687839
000020 b3 dd 12 3f 80 43 98 be fe 2b 8d 3d 1b 51 5c 3e
       0.57369536 -0.29738998 0.068931565 0.21515314
000030 65 75 c6 3f 0a d9 1a 3f 2f ca 68 3f 2e 69 7d be
       1.5504576 0.60487425 0.9093351 -0.24747154
000040 84 b9 8c 3f b3 ca 37 3f 44 10 c6 3f e3 45 71 3e
       1.0994115 0.7179367 1.5473714 0.23561816
000050 5b 71 e7 be 32 7c 2a 3e 8a 97 a9 3f 4d b1 03 3f
       -0.4520367 0.16648939 1.3249371 0.51442415
000060 96 17 f5 3b 69 52 32 3f 27 9e e0 3c 0b f8 f6 bc
       0.0074796183 0.69657 0.027419163 -0.030147573
000070 81 50 9f be 6d 9c 14 3e de cd c9 bc af 6a e9 3e
       -0.31116107 0.14512797 -0.024634298 0.45589206
000080 85 e2 a4 be ea 1b b3 3e ec d8 2f be b8 ec 90 3d
       -0.3220407 0.34982234 -0.17172593 0.070764005
000090 d2 ec b0 be 3b 86 10 3f 2f d9 4e be 2d 5a 10 3f
       -0.3455568 0.5645482 -0.20200036 0.563876
0000a0 7d f2 c8 be 6f c9 a2 3e 26 8c c5 be e5 4d 0d 3f
       -0.39247504 0.31794307 -0.38583487 0.5519698
0000b0 ad 4b d3 bd ee 96 16 bf 3c 9f ec be 9c 9f ad 3e
       -0.103171684 -0.5882405 -0.46215236 0.33910835
0000c0 41 f6 4c be 8a 33 17 be a7 d2 8b 3f b6 9a 82 3e
       -0.20015813 -0.14765754 1.0923661 0.2550866
0000d0 29 5d 03 bd 73 87 ef be 1f 5d 9c bd 4d 1f 60 3e
       -0.032071266 -0.46783027 -0.07634949 0.2188694
0000e0 0e 59 02 3f 8a 8d 1a bf e1 f0 2a be d2 94 13 bf
       0.50917137 -0.6037222 -0.1669345 -0.57648957
0000f0 69 39 9c 3e f2 86 0a bf a6 d3 8e be 5e 0d 8f bf
       0.3051255 -0.5411216 -0.2789585 -1.1175954
000100 78 2b 25 be e0 a0 e8 bd 9d b0 13 bb ed 32 a3 bf
       -0.16129863 -0.113588095 -0.002253569 -1.2749916
000110 6f 9f 19 bf 6e 17 58 bf ed 9f a2 be e0 aa 1c bf
       -0.600089 -0.8441075 -0.3176264 -0.61198235
000120 f1 42 f3 be 6a 19 7c bf 04 a1 34 bf af 39 b7 3e
       -0.4751201 -0.9847628 -0.7055819 0.35786197
000130 25 42 46 3e 61 b6 20 3e e9 af f9 bd 8d 8a 05 be
       0.1936117 0.15694572 -0.12191755 -0.13041134
000140 77 56 0e 3f a3 36 48 3f fd aa 5c 3e ee 4f ca be
       0.55600685 0.7820837 0.21549602 -0.39514107
000150 cc e2 e6 be c4 e4 e1 3e 64 f9 25 3e 2f 73 07 bf
       -0.45094907 0.44119847 0.16208416 -0.5291013
000160 04 80 28 bf 71 07 e2 be 7f 9a 56 3e d7 1e a3 3d
       -0.65820336 -0.44146302 0.20957373 0.079648666
000170 29 23 c8 be 8d b4 1e bf bb eb fa be 30 52 9f 3e
       -0.39089325 -0.6199425 -0.49007973 0.31117392
000180 0f e7 bf 3e 4d 02 a1 3b c5 31 33 be 27 27 67 be
       0.3748097 0.0049136044 -0.17499454 -0.22573529
000190 3f 1a af 3e 48 c2 93 3e 68 d2 a3 3e 55 5c 99 3d
       0.34199712 0.28859162 0.31996465 0.07488314
0001a0 ca 66 a8 bb 51 24 20 3f 25 b9 82 3f 88 3e 0b 3f
       -0.0051392065 0.62555414 1.0212752 0.5439229
0001b0 a1 df d4 bd 7c 3d 87 be 31 21 0e 3f 39 90 dd 3e
       -0.10394216 -0.26414096 0.55519396 0.43274096
0001c0 cd 59 39 be 69 67 a9 be cd 01 35 be 95 58 ab 3e
       -0.18100663 -0.33086708 -0.17676468 0.3346602
0001d0 7a d6 a6 3e 86 e9 e2 bc a5 9e 6c be f7 50 29 be
       0.32585508 -0.027699243 -0.23107393 -0.16534792
0001e0 47 df e2 3e 67 6a 2a 3f 4a cd da 3e dc f3 90 3e
       0.44310972 0.6656861 0.42734748 0.2831105
0001f0 a6 3d 0b 3e e4 a1 88 be df 19 51 be 9b 23 fa bd
       0.13597736 -0.26686013 -0.20420025 -0.122138225
000200 c0 0f b4 be 9c 4d cd be 30 69 bd 3d fe 63 33 3f
       -0.35168266 -0.40098274 0.092485785 0.7007445
000210 5b 5d 7d 3e 0f cb e7 be ad 24 18 bf ce 72 49 bb
       0.24742644 -0.4527211 -0.5943096 -0.0030738595
000220 7c e2 78 3d 71 85 0d bf 38 ed 41 bf cb ba 14 bf
       0.060762867 -0.5528174 -0.7575259 -0.58097523
000230 1c 5e 9e be c6 38 1a be bc 57 da be 69 3e 2d bf
       -0.30931175 -0.1506072 -0.4264506 -0.67673355
000240 60 3a 1e bf e7 9b 20 be 0f 6b 65 3e e0 f3 bc 3d
       -0.61807823 -0.15684472 0.22404121 0.09226203
000250 f1 3f d1 bd 94 37 9d be 9e fc 43 bf 80 a7 0b bf
       -0.10217274 -0.30706465 -0.7655734 -0.5455246
000260 ee be 31 be 98 24 09 3e 64 d2 4f 3e f9 08 36 bf
       -0.1735799 0.13392866 0.20295101 -0.7110744
000270 71 75 f5 be c0 bd e4 3e 81 56 9e 3d 6b 92 3e 3f
       -0.47941163 0.44676018 0.07731343 0.74442166
000280 57 98 3d bf 7a 62 21 be 16 56 5e 3e 6a 40 42 3f
       -0.7406058 -0.15760222 0.21712527 0.7587954
000290 1f 92 c7 3e 7b 2e 04 bf ef 6a 9c 3e 97 fa d5 3e
       0.3897867 -0.51633424 0.30550334 0.41792747
0002a0 bb ef 20 3e b3 b3 0e 3f f2 10 80 be d4 89 48 3e
       0.1571645 0.5574295 -0.25012928 0.19583827
0002b0 c0 d9 90 3d 46 c3 91 3e 2a 13 6d 3d 4b cf 41 bd
       0.070727825 0.28469294 0.057879604 -0.04731683
0002c0 aa 7e a5 bb 70 3f 41 3e b0 5a ac 3e cc 28 b2 3e
       -0.0050505 0.18871856 0.3366294 0.3479675
0002d0 cc 9f 8e bd 7b 0f 6f bd 1c 80 25 3f f9 b4 80 3d
       -0.069640726 -0.058364373 0.64648604 0.06284518
0002e0 6f cd 31 3f 66 9f 3d be 4d 42 1f 3e 94 75 8d 3e
       0.6945409 -0.18517837 0.15552635 0.27628767
0002f0 97 70 25 3f 6c 28 91 3e 26 54 ca bb ee e2 17 3f
       0.64624923 0.28351152 -0.006174582 0.5933064
000300 1d dd fe 3e a2 7c f2 3d 6d 92 0d 3f ec 2d 96 3e
       0.4977807 0.11840178 0.55301553 0.2933191
000310 01 be 0f 3f e2 e5 8c 3e 02 bd db 3e 73 8f 5b 3e
       0.561493 0.27519137 0.4291764 0.2144144
000320 0c a8 a3 be 7a 25 94 be eb 20 37 be 92 10 27 be
       -0.31964147 -0.28934842 -0.17883651 -0.16314915
000330 4b 7d 6d be 5d a1 8e be bf 18 ad be 40 c7 14 3e
       -0.23192327 -0.27857485 -0.33807942 0.14529133
000340 25 40 23 bf 17 e7 55 bd 03 6e cf be 0b 3f 32 be
       -0.6376975 -0.052222338 -0.4051362 -0.17406861
000350 e5 9c a0 be 6e 61 11 be a4 5b f0 be 61 1e 8b be
       -0.313697 -0.14197323 -0.46944916 -0.27171615
000360 c5 00 49 3e 4c 80 b4 bd 1c 5a 0e bf a3 05 ea bd
       0.196292 -0.08813533 -0.55606246 -0.11426856
000370 9a 37 20 3c cf 3a 25 3e 52 f9 79 be ca 61 0b be
       0.009778881 0.16135715 -0.24411514 -0.13611522
000380 c1 94 b6 be e1 9b 63 bc a3 2b c0 bc e8 84 89 bc
       -0.35660365 -0.013892145 -0.023458308 -0.016787007
000390 7c 28 ca bc 6b d0 ae bc e2 86 95 bc 62 5d 63 bc
       -0.024677508 -0.021339616 -0.018252794 -0.013877245
0003a0 35 b2 83 bc a3 af a9 bc d1 77 a1 bc eb 68 9c bc
       -0.016076187 -0.020713633 -0.019710453 -0.019092998
0003b0 fb 1b d2 bc c8 af 94 bc 5c 93 b6 bc 7b 28 47 bc
       -0.025648108 -0.018150225 -0.022287063 -0.012155647
0003c0 8d f5 9f bc 84 c9 aa bc 5f 4b 81 bc dc d1 aa bc
       -0.019526267 -0.020848043 -0.01578301 -0.020852022
0003d0 32 8f 9f bc ba 5b b5 bc 2b 09 bb bc 5a aa 5c bc
       -0.01947746 -0.022138465 -0.02283152 -0.013468349
0003e0 f8 92 c4 bc 99 7d 54 bc 7d 11 9a bd 67 64 af bd
       -0.023995861 -0.012969398 -0.07522867 -0.08564072
0003f0 0f 62 98 bd 35 f9 a6 bd 2e b7 ad bd 1e 95 9d bd
       -0.07440578 -0.08153001 -0.084822044 -0.076944575

bias f4 [8]
000000 ee 44 72 3f 96 b2 a5 3e 43 c2 96 bf d2 7a b9 be
       0.9463643 0.32362813 -1.1778034 -0.36226517
000010 8d 1c 80 3e a6 47 b7 be d7 8b e9 bb ac 31 da 3b
       0.25021783 -0.3579685 -0.007127266 0.0066587534

weight f4 [16, 8, 5, 5]
000000 9f d1 eb bd 92 6c 6c bd 76 c7 4c be 9e 73 03 be
       -0.115145914 -0.05772073 -0.19997963 -0.12837073
000010 c2 8d 5d be 96 f7 2a bd 47 a6 85 be 09 77 22 be
       -0.21636108 -0.041740023 -0.26103422 -0.15865721
000020 bd 62 9c bd 09 b5 e4 3d 43 9e fa bd 9c 47 3a be
       -0.0763602 0.11167342 -0.12237217 -0.1819138
000030 28 03 d2 3d b6 82 05 3e d5 36 f6 3d 90 2f 1a be
       0.10254508 0.13038144 0.12022177 -0.15057206
000040 46 fe f6 3d 57 3d fc 3d 55 67 0f 3e 3d 27 b6 3d
       0.120602176 0.12316387 0.14004262 0.08894203
000050 16 32 3b bd ae 10 05 3d 8e e8 d8 bd 60 41 23 bb
       -0.045702063 0.03248661 -0.10591231 -0.0024910793
000060 36 d8 1d 3d 48 2d cb bd d8 29 46 be 16 6f 74 be
       0.038536273 -0.09920746 -0.193519 -0.23870501
000070 a3 27 cd bd 69 9f a6 bd 13 ee 55 be 44 02 3c be
       -0.10017326 -0.08135874 -0.208916 -0.1836024
000080 56 5c da bb c1 1d 10 3e 08 4d df 3d 30 c8 57 be
       -0.0066638393 0.1407385 0.109033644 -0.21072459
000090 de e9 8f 3d 90 df a7 bd 40 7c 0f 3d 61 ec 81 3d
       0.070270285 -0.08196938 0.035030603 0.06343914
0000a0 b5 0f b8 bc c8 a2 90 3c bb 58 61 bd 0b 77 b2 bd
       -0.022468427 0.017655745 -0.05501626 -0.08714112
0000b0 b8 bd f4 3d eb 70 7a 3e 2f 1e d2 bd 21 9f 22 be
       0.119502485 0.24457137 -0.10259663 -0.15881015
0000c0 5c 64 c8 bc e6 8a 76 bd 7b 7a ef bd f8 24 0b 3e
       -0.024461918 -0.060191058 -0.11693283 0.13588321
0000d0 9f 3a 11 bd e6 3d a5 bd 5b 55 d6 bd 1d 02 88 3e
       -0.035456296 -0.08068447 -0.10465499 0.26564112
0000e0 c4 f1 bd 3e 3d 0e 27 bd f4 f6 0f be 9d 53 25 be
       0.37098515 -0.040785063 -0.14059049 -0.16145177
0000f0 e8 e8 3a 3e 16 21 bb bd 7a a5 dd bd 99 2e c1 bc
       0.18252909 -0.0913717 -0.10822578 -0.02358179
000100 3c 75 07 bc 28 49 20 be 10 a9 60 be 03 10 9a bd
       -0.008267697 -0.15652907 -0.21939492 -0.07522585
000110 59 ad 42 bd 46 bf 29 3d 55 9f 0c be 42 7c 1f be
       -0.0475286 0.04144218 -0.13732655 -0.15574744
000120 94 c9 5b bd 96 32 8e 3d 39 d6 27 3e f5 5a c9 bb
       -0.053659037 0.06943242 0.16390313 -0.006144876
000130 f9 c3 5f 3a 7b 96 f6 ba 3d 83 85 bb 57 34 aa b9
       0.0008535977 -0.0018813157 -0.0040744827 -0.00032463923
000140 15 58 c6 ba 7b 07 86 bb 1a 2f fc ba fe 2c 9e 37
       -0.0015132452 -0.004090247 -0.0019240112 1.8856019e-05
000150 ac c9 b4 bb a2 fe 1c bb b6 62 c5 39 8f 1a 9d 39
       -0.005517205 -0.0023955484 0.00037648313 0.0002996516
000160 58 5a ae 3a 68 c0 ed 39 82 20 df bb 36 e8 92 ba
       0.0013302071 0.00045347516 -0.006809295 -0.001120812
000170 ab ea 94 bb 9e 02 39 bb 22 ff 09 ba 0e 57 9c bb
       -0.004544576 -0.002823032 -0.0005264153 -0.00477112
000180 f2 a6 c4 ba 29 70 15 bb 75 e8 4a bb 6d e0 5b ba
       -0.0015003367 -0.0022802448 -0.003096131 -0.0008387629
000190 11 41 64 3c 52 bf b0 3d f3 b7 08 bd 29 90 e0 bd
       0.013931529 0.086302415 -0.033378553 -0.10964996
0001a0 d6 56 7b bd d0 f3 99 bd 67 e4 0c be f3 86 08 be
       -0.06136211 -0.07517207 -0.13759004 -0.13332729
0001b0 5a 9b 86 bd 1d f1 28 bd cd 6b e3 3d 73 14 03 3c
       -0.065726 -0.04124557 0.11104546 0.008000481
0001c0 f4 9b e0 3b e4 39 f4 bd ea 4d 8b bd e7 50 27 3e
       0.0068545286 -0.11925104 -0.0680197 0.16339456
0001d0 7d e8 0b 3e b3 4b 80 3d c2 0f 33 3e c6 d2 0d bd
       0.13662906 0.062644385 0.1748648 -0.034624837
0001e0 51 77 53 bd a1 39 35 3c 79 1d b4 3d a2 a6 1e 3e
       -0.05162746 0.011061103 0.08794684 0.15493253
0001f0 df c0 0b 3e 06 0c 85 3e 78 53 7f 3e b7 2d d2 bd
       0.13647793 0.25985736 0.24934185 -0.10262626
000200 b7 e3 88 be fd 18 95 be d5 81 d7 3e 6e 91 fa bd
       -0.26736233 -0.29120627 0.4209124 -0.1223477
000210 97 a2 61 be 20 e2 17 be 43 91 97 bd bf 45 49 be
       -0.2203468 -0.14832354 -0.07400753 -0.19655512
000220 31 de 64 be 6a 06 8e bd ad 70 18 bd cd e3 78 bd
       -0.22350384 -0.06934817 -0.03721683 -0.060764123
000230 c7 3b 32 be b7 d1 d8 bd 30 53 33 bd 1d ea 88 bd
       -0.17405616 -0.10586875 -0.043780506 -0.066852786
000240 fa d1 90 bd ca 7a 89 bd a9 ef c4 bd 3f 71 f7 bd
       -0.070713 -0.06712873 -0.09616024 -0.12082147
000250 eb 2c 8a bd 0c b4 66 be 23 c0 4f 3b f6 16 b1 b8
       -0.06746849 -0.2252962 0.0031700216 -8.4442945e-05
000260 6b fb f1 3a a3 1c 4e 3b ac a5 00 bb 50 1c 67 bb
       0.0018461769 0.0031450174 -0.0019629998 -0.0035264678
000270 b0 69 71 ba 81 96 8b b9 23 f1 fa 37 9b 8a cb 3a
       -0.0009209169 -0.0002662428 2.991461e-05 0.0015528979
000280 9d e2 69 3b cd ca 4b bb 55 50 1c 3b be c6 d4 ba
       0.003568805 -0.003109622 0.0023851593 -0.0016233546
000290 2c b8 35 3b 79 a1 5b ba 34 aa 18 bb 30 be 4e bb
       0.0027728183 -0.00083782483 -0.0023294808 -0.0031546466
0002a0 29 66 30 bb 78 f6 ff 38 6e 99 36 3a a7 52 ea 3a
       -0.002691636 0.00012205256 0.0006965612 0.0017877416
0002b0 2e 5d ad 3a dd 05 7f 3b 1c 11 43 bb 1a df 25 b9
       0.0013226622 0.0038913407 -0.0029764837 -0.00015818738
0002c0 e7 3a e0 bb a1 22 d0 ba 87 0a aa 39 2e 2e e8 ba
       -0.006842959 -0.0015879461 0.0003243277 -0.0017713958
0002d0 43 27 3f bb 22 59 d6 bb f6 e4 86 3b f6 40 32 bb
       -0.002916769 -0.006541387 0.0041166497 -0.0027199364
0002e0 f4 04 e1 3a d3 57 fa ba 39 7a 25 bb ae b7 72 bb
       0.0017167614 -0.001909966 -0.0025249852 -0.003703575
0002f0 f9 13 a5 bb cc e9 e1 39 64 3d 19 3b 54 cd 3a 3b
       -0.0050377813 0.00043089536 0.002338254 0.0028503733
000300 a3 bf ff 37 46 e7 07 bb 0b 59 88 3a c8 9c 69 ba
       3.0487607e-05 -0.0020737215 0.0010402513 -0.0008911607
000310 cb a2 75 bb 43 3e 39 3a 71 1e e0 3a c0 e6 84 39
       -0.0037481065 0.00070664677 0.0017098916 0.00025348924
000320 98 80 b6 3f 27 86 a6 3f a5 84 45 3e 18 da 9b bd
       1.4257994 1.300969 0.19288881 -0.076099575
000330 d2 68 00 bf 14 06 ac 3d e1 a1 c4 bd 21 fa 31 bf
       -0.50159943 0.08399597 -0.096011885 -0.6952229
000340 00 23 56 be f1 d8 e0 be e1 79 38 3d b5 92 e8 be
       -0.20911789 -0.43915513 0.045038108 -0.4542443
000350 a0 b8 30 bf d9 70 d1 bd c0 68 7f be d7 6f b8 be
       -0.69031715 -0.10226602 -0.24942303 -0.36022827
000360 c2 76 c7 be 41 9d 2f be 59 78 3a 3e 13 ea 52 bd
       -0.38957793 -0.17149831 0.18209971 -0.05149276
000370 5d 71 3d bf 6a 38 dd be 7e 0f 6d be 05 fd dd bd
       -0.74001104 -0.43207103 -0.23150441 -0.10839275
000380 bd bf e4 be d1 69 5b bf 1e ee 5b be e9 ee 06 3f
       -0.44677535 -0.8570834 -0.21477553 0.527083
000390 6b 25 64 be 45 db 04 bf 26 4f 37 bf 86 42 84 be
       -0.22279899 -0.5189708 -0.71605146 -0.25832003
0003a0 b0 0f bc 3e 36 ef a5 bd 2c 32 ef 3d 2b 48 b9 3d
       0.3673072 -0.081022665 0.116794914 0.09046968
0003b0 ed 8d fa 3e 74 56 ec 3e 1f f7 15 3e a1 77 b7 3c
       0.48936406 0.46159708 0.1464505 0.02239591
0003c0 81 89 da 3e 0c e6 c8 3e 27 b1 11 be 87 e7 84 be
       0.42683032 0.39238012 -0.14227735 -0.2595789
0003d0 63 03 fa be 44 5d 38 bf 3f 9e 00 bf 9a c9 a8 be
       -0.4883071 -0.7201731 -0.50241464 -0.3296631
0003e0 d8 d0 c6 be 07 a6 0c bf 4c bd 46 3f 63 37 c4 be
       -0.3883121 -0.5494084 0.77632594 -0.38323507
0003f0 c3 e7 45 bf 45 8c 81 be a8 a6 b0 be 43 15 62 3f
       -0.77306765 -0.2530233 -0.3450215 0.8831369

bias f4 [16]
000000 13 1e 0a bf fe 9a 92 bf a1 8e 03 bd f6 b0 eb bb
       -0.5395214 -1.145355 -0.032118443 -0.0071927262
000010 6d 9c c7 bc 91 f2 08 bc da d1 58 be 97 e1 b0 bb
       -0.024366582 -0.008358614 -0.21173802 -0.005397986
000020 5e 67 ae bd 47 89 8c be 8f e7 e7 bb 25 5a ef be
       -0.085158095 -0.27448484 -0.0070771645 -0.46748462
000030 d6 f3 ac bf d0 c3 28 bc 92 f0 fa 3c a7 b3 17 bf
       -1.3511913 -0.010300592 0.030632291 -0.592585

weight f4 [2, 32400]
000000 d9 b5 8a 3d 45 70 44 bd dc 10 07 bc 6c 74 58 3a
       0.06772966 -0.04795863 -0.008243766 0.00082570943
000010 aa 1a 10 3c f4 53 47 3d 68 f5 32 bc b6 83 48 3d
       0.00879542 0.04866405 -0.010922767 0.048953734
000020 2e 40 8f 3d f4 d7 a4 bd 06 49 6b bc cb 99 85 bd
       0.06994663 -0.08049002 -0.014360672 -0.06523474
000030 7f 09 85 3d 4d 70 66 bc 61 3a bf 3c 06 d0 de bb
       0.06495952 -0.0140648605 0.023343267 -0.0067997007
000040 49 77 69 bd eb 7c 13 be bc 87 0f 3d 74 c6 84 3d
       -0.056998525 -0.14403121 0.035041556 0.064831644
000050 e8 96 a5 3d 82 6d 44 3d bb 41 71 bc 46 ee aa 3d
       0.08085424 0.047955997 -0.014725144 0.08346228
000060 a5 b5 8c bc 4a 73 67 bd cd 3e 92 3c e0 e3 dc 3c
       -0.017176459 -0.056506433 0.017852211 0.026964128
000070 82 2e 5f bc 5c 12 cf bc 52 fc b5 bd 1f 1e 06 3c
       -0.013621928 -0.02527731 -0.08886017 0.008185892
000080 1b 37 07 bd d0 c8 bd bd 01 97 aa 3d b2 f2 bf 3c
       -0.033011537 -0.092668176 0.08329583 0.023431156
000090 a9 ad 0b bd fd 33 ea 3b ec 75 f2 3c c5 db 7b bd
       -0.034101162 0.007147311 0.029597245 -0.061488885
0000a0 da 7a a7 3b dc 9f e6 bb 4d 0b 81 bc de 82 85 bc
       0.0051110806 -0.0070380997 -0.015752459 -0.016297754
0000b0 25 4f 79 bc a7 68 49 3d da f1 5e bd 8f 9c 3a bd
       -0.015216623 0.04917207 -0.054429866 -0.045559462
0000c0 d6 e2 46 bd 3c 8f 4d bc a2 08 c7 bb 8a 5f 90 3b
       -0.04855617 -0.012546357 -0.006074027 0.0044059204
0000d0 50 6c 7a bc 30 08 20 bd 97 7f c6 bc b9 14 98 3d
       -0.015284613 -0.03907031 -0.024230761 0.074258275
0000e0 29 8f 71 3d 74 47 12 bd 5b f4 2b bd 1c dc 1a bd
       0.05897442 -0.035712674 -0.041981082 -0.03780757
0000f0 d9 2d 82 bc e9 64 24 3b b9 c1 37 bd 7e 5b 71 bd
       -0.015891002 0.0025084561 -0.044862483 -0.058925144
000100 14 f9 60 bd d1 16 c4 bb 9b 28 e1 3d 56 ad a9 bb
       -0.05492504 -0.0059841652 0.10994073 -0.005178134
000110 30 68 28 3c 27 c7 78 bd c2 fb 95 3d a2 ba ec ba
       0.0102787465 -0.0607368 0.073234096 -0.0018060992
000120 2c 9d 65 bd 4f 8f 02 bc 99 ce 11 3d 4c b6 6d 3c
       -0.056058094 -0.007968738 0.035597418 0.014508795
000130 b9 0a b9 3d 9d e8 8f 3d c0 25 31 bd 7b f5 ba bc
       0.09035248 0.07026789 -0.04324889 -0.022822132
000140 72 b3 5b 3d 82 21 2b bd ef ed 54 3d 3b ab 2a 3c
       0.05363793 -0.041780002 0.051984724 0.010416801
000150 78 7d 72 3d 95 a4 b9 bd ef 12 86 3d 1d 79 78 bd
       0.059201688 -0.09064595 0.0654658 -0.060662378
000160 3b 00 d6 bc be 06 e2 3c 19 45 3d bd b4 51 ea bb
       -0.026123157 0.027591106 -0.046208475 -0.007150853
000170 47 a4 e1 ba 3b d4 62 bd 37 6f af 3d 89 f8 80 3b
       -0.0017215096 -0.05537818 0.085661344 0.0039358777
000180 78 0d 91 3d 0f be 8b bd b7 cb 37 3b ce a6 1d bd
       0.07082647 -0.0682336 0.0028045007 -0.038489155
000190 b8 54 2d bd 9b 53 3d 3d 5e 7b ab 3d 90 9c 42 bd
       -0.042317122 0.04622231 0.0837314 -0.04751259
0001a0 63 2b 8f bd ed 6c 6a bd 98 6e 95 3d dc c0 f4 bc
       -0.06990697 -0.057232786 0.07296485 -0.029877119
0001b0 20 d9 2f bd 4a 67 0a 3d ac 8e 89 3c cd 97 18 bd
       -0.042931676 0.03378991 0.016791664 -0.037254144
0001c0 34 16 86 3c fa f3 0e bd 35 33 38 bd 4c a1 ab 3a
       0.01636801 -0.034900643 -0.04497071 0.0013094335
0001d0 69 b5 3e bc 81 8d d6 bd 40 51 95 3d d5 52 c2 3b
       -0.011639931 -0.104762085 0.07290888 0.0059302845
0001e0 f8 c4 bc bd 39 a6 ce bd f9 21 0d bd e2 33 f5 bc
       -0.09217256 -0.10090298 -0.034456227 -0.029931966
0001f0 65 7e 0b 3c 91 bb 60 bd bd ef 0e 3d 80 a7 16 3c
       0.0085140215 -0.054866377 0.0348966 0.009195209
000200 a3 f1 15 3d 7e af ec bd 1b 54 7a bc 50 95 84 bd
       0.036607396 -0.1155691 -0.015278841 -0.064737916
000210 d9 ff 6a bd 02 f0 0a 3d 96 f3 be bd d9 f0 44 bd
       -0.0573729 0.033920296 -0.09323804 -0.048081253
000220 10 1c ef bc ca 17 0c bd 6a 10 88 3c 66 f5 59 bc
       -0.029188186 -0.034202375 0.01660939 -0.013303136
000230 b2 23 10 bd 4c 88 3d 3d b2 84 d7 bc 6d 20 07 3d
       -0.03519029 0.04627256 -0.026308391 0.032989908
000240 c4 ec 90 bd 57 6e 83 bc ff fd 3a bd 0a 42 91 bc
       -0.070764095 -0.016043825 -0.045652386 -0.017731685
000250 15 bc fc bb 20 30 9b bc 3e 24 5b ba 2e 54 5e 3d
       -0.007712851 -0.018943846 -0.00083595875 0.0542795
000260 f3 1e 88 bd 3f 45 de 3d 65 ce b1 3c 2b 68 54 3d
       -0.06646528 0.108530514 0.021704862 0.051857155
000270 34 64 bd 3c 9c 04 f0 bc 9d 37 3f bd bb 55 39 3c
       0.02311907 -0.029299073 -0.046683896 0.011311944
000280 7a 7e 58 bd 44 ff 7a 3d 13 56 d4 3c 24 8f c8 bb
       -0.052854992 0.061278597 0.02591995 -0.0061205793
000290 14 91 3c bd 05 1d 05 bd 17 9a 90 3b aa 04 8b 3d
       -0.046036795 -0.03249838 0.0044129 0.06787999
0002a0 30 50 4e 3d fa 21 0c 3d 86 4d ab bc c4 7d 7b 3b
       0.05036944 0.03421209 -0.02091099 0.0038374523
0002b0 7e f0 f1 3c 45 e2 94 3c 49 fe 57 bd 5c 25 19 bd
       0.02953362 0.0181743 -0.05273274 -0.037389144
0002c0 3d 7c 46 3b 0b d1 f5 3c ba da a4 bc 33 a7 9f bd
       0.0030286454 0.030006906 -0.020123828 -0.077955626
0002d0 84 56 29 3d 7a 20 1a bd 4d c2 7e 3d c3 61 26 bc
       0.041342273 -0.03762863 0.06219702 -0.010155144
0002e0 60 28 eb bd ec ef 34 bc 71 0f 2d bc bc b3 72 3d
       -0.1148231 -0.01104353 -0.010562764 0.05925344
0002f0 4a f0 0b 3d 87 5b 8c 3c 3e 72 20 3c 06 c6 d0 3c
       0.034164704 0.017133487 0.009792862 0.02548505
000300 14 c8 9c bd 73 78 2e 3d d0 c7 40 3c 7e 90 c5 bd
       -0.076553494 0.042595338 0.011766389 -0.096467
000310 99 a9 95 3d a1 80 50 3d 7a a8 41 3d 1d 89 c1 bc
       0.07307739 0.05090392 0.047279812 -0.023624951
000320 84 fe f8 bd 15 89 29 bd b0 3d 9b bc 58 62 bf bd
       -0.1215792 -0.041390497 -0.018950313 -0.093449295
000330 1f 4a ef 3c dd c5 75 bc be 90 4b 3d 64 bf 72 bd
       0.029210148 -0.015000788 0.049698584 -0.059264556
000340 8e 11 ec bb 7c 54 84 3d 18 3c d8 3c c4 56 c2 3c
       -0.007204241 0.064614266 0.026395842 0.023723014
000350 a1 00 6f 3c eb b1 32 3d c6 f5 32 bd 7a 24 cb 3d
       0.014587552 0.043626707 -0.04369142 0.09919067
000360 10 55 c0 3c b2 5f f3 bc 27 0f 9c bb 0d 75 39 3d
       0.023478061 -0.029708717 -0.0047625485 0.045277644
000370 f4 eb 3d 3d 3c bf 74 bd db 23 6e 3d 7b 64 09 3d
       0.0463676 -0.059752688 0.058139663 0.03354309
000380 a2 42 9a 3d 8c 89 e1 bb 21 4e 4e bc 6a c7 d3 3c
       0.075322405 -0.006882852 -0.01259187 0.025851924
000390 49 47 52 bd be 83 27 3c a3 6c 05 bd 30 ba 52 3d
       -0.051337514 0.010224281 -0.032574307 0.051447093
0003a0 37 54 54 3d 17 d2 ef 3c 6a 6b 6b bd 41 7f e4 bc
       0.051838126 0.029274983 -0.057475485 -0.02789271
0003b0 b0 d5 6c 3d 3e fe 17 bd cd b8 79 bc 95 08 06 bb
       0.057820976 -0.0371077 -0.015241814 -0.0020451893
0003c0 66 00 79 bd 61 40 13 bd 11 5a b1 3d e0 b1 5b bd
       -0.060791396 -0.03595007 0.08659757 -0.05363643
0003d0 54 81 5a 3d ae a3 17 3c b9 6a 78 3d 69 6a a6 3d
       0.053345993 0.009255333 0.060648654 0.08125765
0003e0 5d 94 6f 3d 7a 2f 00 3d 7d 7b 48 3d 9c 8e 86 3d
       0.0584911 0.031295277 0.048945893 0.06570169
0003f0 29 5b 0d 3c c5 17 31 3c a3 a7 a2 bd f5 3d 46 bd
       0.008627691 0.01080889 -0.079421304 -0.04839893

bias f4 [2]
000000 5c 8b 24 3d 3f 15 25 bd
       0.040171966 -0.040303465
